{"config": [{"config": {"activation": "relu", "bias_constraint": null, "batch_input_shape": [null, 36], "units": 5, "name": "dense_321", "kernel_initializer": {"config": {"seed": null, "distribution": "uniform", "scale": 1.0, "mode": "fan_avg"}, "class_name": "VarianceScaling"}, "dtype": "float32", "kernel_regularizer": null, "bias_initializer": {"config": {}, "class_name": "Zeros"}, "use_bias": true, "trainable": true, "bias_regularizer": null, "activity_regularizer": null, "kernel_constraint": null}, "class_name": "Dense"}, {"config": {"activation": "relu", "bias_constraint": null, "kernel_initializer": {"config": {"seed": null, "distribution": "uniform", "scale": 1.0, "mode": "fan_avg"}, "class_name": "VarianceScaling"}, "units": 20, "name": "dense_322", "kernel_regularizer": null, "bias_initializer": {"config": {}, "class_name": "Zeros"}, "use_bias": true, "trainable": true, "bias_regularizer": null, "activity_regularizer": null, "kernel_constraint": null}, "class_name": "Dense"}, {"config": {"activation": "relu", "bias_constraint": null, "kernel_initializer": {"config": {"seed": null, "distribution": "uniform", "scale": 1.0, "mode": "fan_avg"}, "class_name": "VarianceScaling"}, "units": 40, "name": "dense_323", "kernel_regularizer": null, "bias_initializer": {"config": {}, "class_name": "Zeros"}, "use_bias": true, "trainable": true, "bias_regularizer": null, "activity_regularizer": null, "kernel_constraint": null}, "class_name": "Dense"}, {"config": {"activation": "softmax", "bias_constraint": null, "kernel_initializer": {"config": {"seed": null, "distribution": "uniform", "scale": 1.0, "mode": "fan_avg"}, "class_name": "VarianceScaling"}, "units": 5, "name": "dense_324", "kernel_regularizer": null, "bias_initializer": {"config": {}, "class_name": "Zeros"}, "use_bias": true, "trainable": true, "bias_regularizer": null, "activity_regularizer": null, "kernel_constraint": null}, "class_name": "Dense"}], "keras_version": "2.1.5", "backend": "tensorflow", "class_name": "Sequential"}